Library/Application Support/Code/User/workspaceStorage.bak/017c47738a6de84ab0c80a08d117b967/ms-vscode.js-debug/.profile/screen_ai/126.18/gocr/layout/cluster_sort_custom_ops/model.tflite (tflite, 326540 bytes, 22 tensors)

y/output/bias f4 [64]
00000000: cd40 ddbd 794f bebd d6f2 a9bd 1488 293f
00000010: 6770 863f e030 7dbe 3b4d 3e3f 7d62 e93e
00000020: c959 ffbd 9478 893e 3199 7cbc 271a d5bc
00000030: 3b5f 613c 1f2c 743f 8557 783f 9f9c 5b3e
00000040: b099 59bd 79ee 17bf e19e c03e 5820 933e
00000050: 9bf6 753d ac38 e1bd c0e5 13bd 4a33 333d
00000060: 9cdc 053f 1574 973e 19cb d13d d16a 033e
00000070: 8542 843d 274a 72be 0000 0000 0000 0000
00000080: 0000 0000 0000 0000 0000 0000 0000 0000
00000090: 0000 0000 0000 0000 0000 0000 0000 0000
000000a0: 0000 0000 0000 0000 0000 0000 0000 0000
000000b0: 0000 0000 0000 0000 0000 0000 0000 0000
000000c0: 0000 0000 0000 0000 0000 0000 0000 0000
000000d0: 0000 0000 0000 0000 0000 0000 0000 0000
000000e0: 0000 0000 0000 0000 0000 0000 0000 0000
000000f0: 0000 0000 0000 0000 0000 0000 0000 0000
-0.108033754 -0.09292502 -0.082982704 0.66223264 1.0503052 -0.24725676 0.74336594 0.45582953
-0.12468297 0.26849806 -0.015417383 -0.026013447 0.013755615 0.95379823 0.97008544 0.21446465
-0.053125083 -0.59348255 0.37621215 0.28735614 0.060049634 -0.109971374 -0.03610778 0.043750085
0.5228975 0.2958075 0.10243816 0.12833716 0.06458 -0.236611 0.0 0.0
0.0 0.0 0.0 0.0 0.0 0.0 0.0 0.0
0.0 0.0 0.0 0.0 0.0 0.0 0.0 0.0
0.0 0.0 0.0 0.0 0.0 0.0 0.0 0.0
0.0 0.0 0.0 0.0 0.0 0.0 0.0 0.0

y/hidden_0/bias f4 [128]
00000000: a62d b1bc f8e3 053d f1fe de3d f4d0 443f
00000010: 207f 323f 35d2 53be f655 553f a111 f43e
00000020: ed05 933d 7ccb b13e 94ee 5b3e 87a0 10be
00000030: df75 b5bd cc77 a33f 3a94 713f 1c00 8b3c
00000040: dca4 1abe 2cc7 90be 2055 4ebf 154a 333f
00000050: b57b 2f3e 272c 2b3d 61d4 8ebc 27a6 26be
00000060: bc01 db3e 1758 d33e 15d9 233e b453 e13e
00000070: 4001 403c 9031 ce3d 0000 0000 0000 0000
00000080: 0000 0000 0000 0000 0000 0000 0000 0000
00000090: 0000 0000 0000 0000 0000 0000 0000 0000
000000a0: 0000 0000 0000 0000 0000 0000 0000 0000
000000b0: 0000 0000 0000 0000 0000 0000 0000 0000
000000c0: 0000 0000 0000 0000 0000 0000 0000 0000
000000d0: 0000 0000 0000 0000 0000 0000 0000 0000
000000e0: 0000 0000 0000 0000 0000 0000 0000 0000
000000f0: 0000 0000 0000 0000 0000 0000 0000 0000
00000100: 0000 0000 0000 0000 0000 0000 0000 0000
00000110: 0000 0000 0000 0000 0000 0000 0000 0000
00000120: 0000 0000 0000 0000 0000 0000 0000 0000
00000130: 0000 0000 0000 0000 0000 0000 0000 0000
00000140: 0000 0000 0000 0000 0000 0000 0000 0000
00000150: 0000 0000 0000 0000 0000 0000 0000 0000
00000160: 0000 0000 0000 0000 0000 0000 0000 0000
00000170: 0000 0000 0000 0000 0000 0000 0000 0000
00000180: 0000 0000 0000 0000 0000 0000 0000 0000
00000190: 0000 0000 0000 0000 0000 0000 0000 0000
000001a0: 0000 0000 0000 0000 0000 0000 0000 0000
000001b0: 0000 0000 0000 0000 0000 0000 0000 0000
000001c0: 0000 0000 0000 0000 0000 0000 0000 0000
000001d0: 0000 0000 0000 0000 0000 0000 0000 0000
000001e0: 0000 0000 0000 0000 0000 0000 0000 0000
000001f0: 0000 0000 0000 0000 0000 0000 0000 0000
-0.021628212 0.03268811 0.1088847 0.7688134 0.6972523 -0.20685656 0.8333429 0.476697
0.07178865 0.3472556 0.21477729 -0.14123736 -0.08860373 1.2770934 0.943668 0.016967826
-0.15101951 -0.28276956 -0.8059864 0.70034915 0.17137034 0.041790154 -0.017435255 -0.1627432
0.4277476 0.41278145 0.16000779 0.44009173 0.011719048 0.10068047 0.0 0.0
0.0 0.0 0.0 0.0 0.0 0.0 0.0 0.0
0.0 0.0 0.0 0.0 0.0 0.0 0.0 0.0
0.0 0.0 0.0 0.0 0.0 0.0 0.0 0.0
0.0 0.0 0.0 0.0 0.0 0.0 0.0 0.0
0.0 0.0 0.0 0.0 0.0 0.0 0.0 0.0
0.0 0.0 0.0 0.0 0.0 0.0 0.0 0.0
0.0 0.0 0.0 0.0 0.0 0.0 0.0 0.0
0.0 0.0 0.0 0.0 0.0 0.0 0.0 0.0
0.0 0.0 0.0 0.0 0.0 0.0 0.0 0.0
0.0 0.0 0.0 0.0 0.0 0.0 0.0 0.0
0.0 0.0 0.0 0.0 0.0 0.0 0.0 0.0
0.0 0.0 0.0 0.0 0.0 0.0 0.0 0.0

node_readout/dense_3/bias f4 [2]
00000000: 9540 1b3f 7440 1bbf
0.6064542 -0.6064522

message/output/bias f4 [32]
00000000: 12ca e33d 2c83 7dbd cabf 203e 53cf 9d3d
00000010: 739c d4bc d1a7 883d 5a31 923c 08dc e7bc
00000020: 716f 353d f2e4 8d3d 50c2 3c3d 9365 833d
00000030: 4832 063e cf8e 013d 2f58 723d 7a1e 13bc
00000040: 351d aa3d 38cc b7bb 693f 9a3d ae15 113e
00000050: a3c3 a23d a92c 073e 3b7b 103e b517 313e
00000060: 3d1f 0d3e 1587 38bd 16f2 83bd e324 bb3c
00000070: e6f0 9b3d 6838 e03d 0000 0000 0000 0000
0.11122526 -0.061892673 0.15698162 0.077055596 -0.025953507 0.066726334 0.017845798 -0.028303161
0.044295732 0.069284335 0.04608375 0.06415858 0.13105118 0.031630334 0.05916613 -0.008979434
0.08306352 -0.0056090616 0.07531626 0.14168426 0.07947471 0.1320063 0.14109509 0.172942
0.13781448 -0.0450507 -0.064426586 0.022844737 0.07614307 0.10948259 0.0 0.0

message/hidden_0/bias f4 [128]
00000000: 3fdb b93c 6c0f a7bd 8232 a7ba 133a 78bd
00000010: f2cc 343d 310f adbd 35c5 663d 2408 c13b
00000020: 12a5 833d c3fa 0eba c010 4cbc 12d1 463d
00000030: 6bdb aebd b0ef 133e 8fa3 0c3d 3224 8d3d
00000040: 8ba0 8f3c 2c49 8dbb 1a51 5cbe 60a3 bb3d
00000050: 4266 b4bc 0d73 043d 12d7 e33c 73a0 e7bb
00000060: 456b 86bc 2f38 973d 759e 4a3e b36e 9c3d
00000070: d994 d4bc d884 133d 0000 0000 0000 0000
00000080: fc96 f73b 0f2b f5bc 1254 c0bc 39b2 b7bd
00000090: 5129 e5bc 19ea 0a3e eee8 81bc 143e 2c3d
000000a0: ed92 903d bd2d 813b 192b 83bc 3895 403d
000000b0: 9a6e 73bd 2cd8 79bd bd2f 7d3c 9298 96bb
000000c0: 7985 013d 5365 d7b9 a550 edbc 2812 ea3c
000000d0: d2e8 3dbd daaa 943d 550e 06bb a99f 7a3d
000000e0: 0316 e1bd 0190 97bd 63e3 913d c3e8 da3a
000000f0: 10d1 e8bc 022a b63b 0000 0000 0000 0000
00000100: 0000 0000 0000 0000 0000 0000 0000 0000
00000110: 0000 0000 0000 0000 0000 0000 0000 0000
00000120: 0000 0000 0000 0000 0000 0000 0000 0000
00000130: 0000 0000 0000 0000 0000 0000 0000 0000
00000140: 0000 0000 0000 0000 0000 0000 0000 0000
00000150: 0000 0000 0000 0000 0000 0000 0000 0000
00000160: 0000 0000 0000 0000 0000 0000 0000 0000
00000170: 0000 0000 0000 0000 0000 0000 0000 0000
00000180: 0000 0000 0000 0000 0000 0000 0000 0000
00000190: 0000 0000 0000 0000 0000 0000 0000 0000
000001a0: 0000 0000 0000 0000 0000 0000 0000 0000
000001b0: 0000 0000 0000 0000 0000 0000 0000 0000
000001c0: 0000 0000 0000 0000 0000 0000 0000 0000
000001d0: 0000 0000 0000 0000 0000 0000 0000 0000
000001e0: 0000 0000 0000 0000 0000 0000 0000 0000
000001f0: 0000 0000 0000 0000 0000 0000 0000 0000
0.022687552 -0.08157238 -0.0012756141 -0.06060226 0.044140764 -0.08450163 0.056340415 0.005890863
0.06427969 -0.00054542365 -0.012455165 0.04853923 -0.085379444 0.14446902 0.03433567 0.06891669
0.017532608 -0.0043117013 -0.21515313 0.09162021 -0.022021417 0.032336283 0.027812514 -0.0070686876
-0.016408572 0.07383763 0.19787009 0.07638302 -0.025949882 0.03601536 0.0 0.0
0.0075558405 -0.029927758 -0.023477588 -0.0896954 -0.027973803 0.13565864 -0.01585814 0.04205139
0.07059274 0.00394222 -0.016011762 0.047017306 -0.05943165 -0.060997173 0.015453276 -0.0045958245
0.03162143 -0.00041083488 -0.028969118 0.02857311 -0.046364613 0.0725915 -0.002045532 0.06118742
-0.109905265 -0.074005134 0.07123449 0.0016701448 -0.028420001 0.005559207 0.0 0.0
0.0 0.0 0.0 0.0 0.0 0.0 0.0 0.0
0.0 0.0 0.0 0.0 0.0 0.0 0.0 0.0
0.0 0.0 0.0 0.0 0.0 0.0 0.0 0.0
0.0 0.0 0.0 0.0 0.0 0.0 0.0 0.0
0.0 0.0 0.0 0.0 0.0 0.0 0.0 0.0
0.0 0.0 0.0 0.0 0.0 0.0 0.0 0.0
0.0 0.0 0.0 0.0 0.0 0.0 0.0 0.0
0.0 0.0 0.0 0.0 0.0 0.0 0.0 0.0

h_next/output/bias f4 [32]
00000000: 1922 4dbb d3b8 013c 3461 a4bd a50c e2bc
00000010: 118d 143e 015f a4bd 4db2 cf3d 0af6 1abd
00000020: 84d5 493c 70f8 533d d55a 8fbd de26 51be
00000030: 20c3 8cbd 0e09 a23d 70c5 c73d 7d6c e1bc
00000040: b69f 373c a210 55bd de55 6a3d cd42 0d3e
00000050: 0375 e5bd d6a8 323c ba60 ea3d c7c9 613c
00000060: 3640 7a3d c681 cebd 2c35 293e 7b41 053e
00000070: 0f8d 30bd bf8d 40bd 0000 0000 0000 0000
-0.0031300841 0.007917601 -0.080263525 -0.02759392 0.14506938 -0.08025933 0.1014143 -0.037832297
0.0123189725 0.0517506 -0.06999747 -0.20424983 -0.06873155 0.07911883 0.09754455 -0.027517552
0.011207512 -0.052017815 0.057210796 0.13795014 -0.11203959 0.010904511 0.114442304 0.013781018
0.061096393 -0.10083346 0.1652419 0.1301326 -0.043103274 -0.04701018 0.0 0.0

h_next/hidden_0/bias f4 [128]
00000000: 1483 253e 3bc8 c4bc 3ffb 883d b3a9 9a3d
00000010: 2e1b b5bb ecf2 ad3d c3ca 1f3e 7a8c d53d
00000020: 6b10 073e ddcc 2fbd 1b7a 0a3d d883 ce3d
00000030: 0245 b9bd d2c3 173c b989 f4bd a440 8b3d
00000040: 2d45 9abd a2c9 463c 5327 8ebe 6b7d 1bbd
00000050: 92b9 663c a136 bdbc 631c 033e fd3f 893d
00000060: 03c6 0b3d 6085 73bb 7806 a13c 402a 773e
00000070: 2315 c53c feda ac3c 0000 0000 0000 0000
00000080: d3e0 253c e669 9abd 1667 ad3d 40ea 003d
00000090: 58b6 b6bd 28c9 64be eda8 383d 02f8 17bd
000000a0: 0471 093c 6e9d 743d e561 733d 90e5 19be
000000b0: d3ab 8dbc c3bf cf3c 171f be3d 3cb4 293c
000000c0: ce27 8439 b9d1 bf3c 9c8c 143d a4dc d43d
000000d0: ffd2 5e3d 69ec d33d 9831 e8bd 3a60 d83e
000000e0: 28d9 ab3c fe45 7a3d 31ff 1e3c 3a6d 41bc
000000f0: 7fae ac3b 5359 f93c 0000 0000 0000 0000
00000100: 8018 ca3d 82a2 8b3c a516 2dbd edec 0d3e
00000110: 4a96 40bb df52 54be 9941 1f3e 5d01 1b3e
00000120: 7ae9 b9bd 2770 763d 8175 2f3e a732 393e
00000130: 623f 1c3e aebb 3e3e 0595 b9bd aab2 8cbc
00000140: b048 673c 6f75 c1bd 386a 46ba ef41 0cbe
00000150: 4f6f 8a3d 94ac e33d 7f5f 0e3e b2a8 c53c
00000160: f8ec d73c ff56 823e b53b ca3c dca1 523d
00000170: a810 c03c 9ab2 0ebd 0000 0000 0000 0000
00000180: 0000 0000 0000 0000 0000 0000 0000 0000
00000190: 0000 0000 0000 0000 0000 0000 0000 0000
000001a0: 0000 0000 0000 0000 0000 0000 0000 0000
000001b0: 0000 0000 0000 0000 0000 0000 0000 0000
000001c0: 0000 0000 0000 0000 0000 0000 0000 0000
000001d0: 0000 0000 0000 0000 0000 0000 0000 0000
000001e0: 0000 0000 0000 0000 0000 0000 0000 0000
000001f0: 0000 0000 0000 0000 0000 0000 0000 0000
0.16163284 -0.024021259 0.066885464 0.07551899 -0.0055269217 0.08493599 0.15604691 0.104271844
0.13189857 -0.042919982 0.033807855 0.10083741 -0.09046365 0.009262996 -0.11940331 0.067994386
-0.075327255 0.012133034 -0.27764377 -0.037961405 0.014082329 -0.023097338 0.12803797 0.06701658
0.034124386 -0.0037158355 0.019656405 0.24137211 0.02405793 0.021100517 0.0 0.0
0.010124403 -0.0753973 0.08466928 0.0314734 -0.08921498 -0.2234236 0.045082975 -0.037101753
0.008388761 0.05972045 0.05941953 -0.15028977 -0.017293846 0.025359994 0.09283274 0.010357913
0.0002520666 0.023415433 0.036266908 0.10393646 0.05440044 0.10347826 -0.11337584 0.42260915
0.020977572 0.061101906 0.009704397 -0.011805827 0.005269825 0.0304381 0.0 0.0
0.09867954 0.017045263 -0.042257924 0.13859911 -0.0029386454 -0.20734738 0.15552367 0.15137239
-0.09077735 0.06016555 0.17134668 0.18085729 0.15258554 0.18626282 -0.09061626 -0.017175037
0.014116451 -0.09446227 -0.00075689284 -0.13697027 0.06759512 0.11116901 0.13903616 0.024128292
0.026358113 0.25456998 0.024686674 0.051423892 0.023445442 -0.034838296 0.0 0.0
0.0 0.0 0.0 0.0 0.0 0.0 0.0 0.0
0.0 0.0 0.0 0.0 0.0 0.0 0.0 0.0
0.0 0.0 0.0 0.0 0.0 0.0 0.0 0.0
0.0 0.0 0.0 0.0 0.0 0.0 0.0 0.0

h_0/output/bias f4 [32]
00000000: 3fb0 0d3e da64 5f3d 8857 413c f29f 8c3c
00000010: 70ee e5be 9691 073e 684d 11bd 54d2 6c3c
00000020: 0da2 e83d 0370 a4bc e130 dcbc aca6 203e
00000030: 3096 823e c6b3 0abb 5d67 cc3d e3eb f43c
00000040: 25de 1bbe 27f5 143e 6850 233e 1183 cb3c
00000050: 44e4 103b 27d3 8c3c d44d 1c3e 70f3 b83e
00000060: 5055 78bc e1a2 d6bc 46f9 fb3d e29f 1b3c
00000070: 356c 903d 2925 bdbc 0000 0000 0000 0000
0.13836764 0.05453954 0.011800654 0.017166112 -0.44908476 0.1323913 -0.03547421 0.014454443
0.11359034 -0.020072943 -0.026878776 0.1568858 0.2550521 -0.0021164282 0.099806525 0.029897636
-0.1522146 0.14546643 0.15948641 0.02484277 0.0022108713 0.017190529 0.15264064 0.36123228
-0.015157059 -0.026200714 0.123034045 0.009498568 0.07051889 -0.023089008 0.0 0.0

edge_readout/dense_2/bias f4 [2]
00000000: 8c72 053e 1170 05be
0.13031977 -0.13031031

edge_readout/dense_1/bias f4 [64]
00000000: 1994 8dbc 8e90 5c3d 51b2 ec3d 5da2 cfbd
00000010: 52a1 073e a426 c7bc 36c0 963e c1dc 8ebc
00000020: 1099 80bd f118 443d 5022 8b3e 27cf 0cbe
00000030: 1ccc 8f3d 904f 05be 5316 f93e 3c86 803c
00000040: 8f99 043e 2c76 423d 0726 063f 5c57 c53b
00000050: 01f0 b73e 4a60 21bd 60b5 80be a35d 9ebc
00000060: 3af9 a13e 8cb1 6abd a1e7 a7bb ef94 833d
00000070: a52d 913c 1748 1abd 7492 ef3b cca4 593e
00000080: e0e8 d63e 0f1e 1f3d 30d0 5d3e cee5 8c3e
00000090: c2a8 7b3e aa8b 483e c65b e8bd af4d 03be
000000a0: eabe 843d 7c69 1b3e 7b93 15be 5a06 74bb
000000b0: 8b0a a23c 9915 4d3d 48d1 6ebe b432 c8bc
000000c0: 726a 88bd 9324 31bd 18d3 8a3e 9ed3 f13e
000000d0: f8ed f33d 7fb6 723d ea3c 733e b438 e43d
000000e0: c7b5 db3b ca33 3b3d 3dc5 00be 7c61 b4bd
000000f0: 46b4 c73e f470 9e39 7d52 663e 0591 42bd
-0.017282533 0.053848796 0.11557449 -0.1013839 0.13245133 -0.024310417 0.2944352 -0.017439248
-0.06279194 0.04787535 0.27174616 -0.13750897 0.07021353 -0.13018632 0.48649845 0.015689008
0.12949203 0.04747598 0.52401775 0.006022377 0.35925296 -0.03939847 -0.25138378 -0.019331759
0.31635457 -0.05729823 -0.005124048 0.06424891 0.01772196 -0.037666406 0.0073111597 0.21254271
0.41974545 0.038847025 0.21661448 0.27519077 0.24576095 0.19584528 -0.113456294 -0.12822603
0.064817265 0.15176958 -0.1460704 -0.003723523 0.019780418 0.050069425 -0.23322022 -0.02443824
-0.06660928 -0.04324777 0.27114177 0.47231764 0.11910623 0.059256073 0.23753706 0.11143628
0.006705019 0.045703687 -0.1257524 -0.08807656 0.39004725 0.00030220265 0.22492404 -0.047501583

edge_readout/dense/bias f4 [128]
00000000: d502 debd 8a7e 653d a110 1bbc f856 d7bd
00000010: d416 4a3e 9f98 633e fbad 01bd 8d96 16bd
00000020: 0e8d 42bd 156e 1d3d 22b0 48bd 8e9c 653e
00000030: 532f aa3c ff48 7e3e efb5 0cbc 0f50 313e
00000040: d39c 1abd 7109 a63d 70d8 acbd 92f9 15bd
00000050: 045a 903d f237 473b 7645 d7bc a08f 033e
00000060: 27db 9e3e 7a23 c83c 2af5 05be 4fce 6f3c
00000070: 474d 653d cf4c ca3d 69e1 6c3e 8320 5a3d
00000080: acc3 1a3c b6c2 863e 6b87 073d 1487 7f3c
00000090: 98bd b4bd 99ef 183d 6d4b 283d 7f8f 45bd
000000a0: 02e6 793c 8401 15bb 3425 b23d 59f1 51bd
000000b0: df63 263e 8030 d5bd 7671 0b3d a1d7 ff3d
000000c0: f4fe 313e 2453 0c3e e159 153d 79c3 2abe
000000d0: f7f5 08be 485b f43d c8ca a13c 68d7 4dbd
000000e0: dae3 413d adfe 7f3d 61a3 813c 419e 5b3e
000000f0: db6e 5bbd 6e3a c03b d0f3 90be b5f5 0dbc
00000100: 3281 a9bc b0bb 0bbd 1b6d ec3a 8c40 b23e
00000110: 08c6 243e 11fb 923e 77a2 afbd 6d8b 2bbe
00000120: 8f11 783d cf98 243e acca 393e 07b8 d8bb
00000130: de73 c83b 48b9 fe3c 6ec0 783e 7174 7b3e
00000140: aff9 333e 0e58 993d 1e38 1d3e 6ab9 133e
00000150: fe7d 7e3e 415b dcbc eb3f 133c 68ac 87bd
00000160: cf00 273e 0b7a e23c 0441 14bd 7839 ce3d
00000170: cb8f fabd 9ef8 9c3c 90f4 b83e e504 963d
00000180: 1fc4 ffbd ec27 e33d 0643 8dbd 18ec cdbd
00000190: 41a6 b2bd 0060 583c 5c54 b23e 452b d43d
000001a0: 6cfa dfbd 972e 923c d5d2 bc3d ec6d 933c
000001b0: f973 223e 3b00 1dbe 3ef6 a03d ac16 4d3d
000001c0: 4f6b 1f3e f83e fabb 2326 8c3d fa86 5d3c
000001d0: 514d 4fbc 64a5 253d 0e50 04bd 3329 f8bc
000001e0: f231 56bb 48f7 27be 67f6 c93d 04b1 993d
000001f0: 5b8a cdbc 49ae dbbb 4d5c e53d 3a68 3d3d
-0.10840384 0.05602888 -0.009464414 -0.10514635 0.1973527 0.22226189 -0.03166006 -0.03676467
-0.0474978 0.03843506 -0.0489961 0.22423002 0.02077452 0.24832533 -0.008588298 0.17315696
-0.037747215 0.081072696 -0.0843972 -0.036614962 0.07048419 0.0030398336 -0.026278239 0.12847757
0.31026575 0.024430979 -0.13081804 0.01463659 0.0559819 0.09877931 0.23132862 0.05325366
0.009446066 0.26320428 0.03308813 0.01559617 -0.08825225 0.037337873 0.041087557 -0.04823255
0.015252592 -0.00227365 0.08698502 -0.051255558 0.16249035 -0.10409641 0.03404375 0.124923
0.17382413 0.1370359 0.03646267 -0.1667613 -0.13375078 0.11931473 0.019750014 -0.050254256
0.047336437 0.062498737 0.015824975 0.21447088 -0.053572517 0.0058663404 -0.28311014 -0.008664538
-0.020691488 -0.03411454 0.0018037887 0.3481487 0.16091168 0.28707173 -0.085759096 -0.16752405
0.06056362 0.16073917 0.1814372 -0.0066137346 0.006117328 0.031094208 0.24292156 0.24556138
0.17575715 0.07487498 0.15353438 0.14426199 0.2485275 -0.026898982 0.008987407 -0.06624681
0.16308902 0.027646085 -0.036194816 0.10069555 -0.122344576 0.019161519 0.36124086 0.07325152
-0.12488579 0.11091599 -0.06897549 -0.10054797 -0.08723117 0.013206482 0.34829986 0.103598155
-0.10936436 0.017844481 0.092199005 0.01799675 0.15864553 -0.15332119 0.07859467 0.05007045
0.15568279 -0.007636901 0.068432115 0.01352095 -0.012652711 0.040440932 -0.03230291 -0.030293083
-0.0032683578 -0.16402924 0.09861451 0.07504466 -0.025090387 -0.006704126 0.111992456 0.046241976

edge_readout/dense/MatMul f4 [128, 128]
00000000: 6ac7 22bd eeb7 b13d 7364 5ebd b429 a93b
00000010: b294 39bd dc3d 34be aee3 d33b b980 5a3d
00000020: a801 633d 5692 723e 7e4a 1e3c 0b65 44bd
00000030: 6a06 293d 16b4 733d 3a04 b6bd 314e a9bd
00000040: 21f8 a2bd c006 fb3c 2e53 293d 6d6c 443e
00000050: f23c b2be df9f 1bbe 7144 d03b 8677 f6bd
00000060: 8281 2e3d 5604 683d a33a 0abe fff3 563e
00000070: 3482 9f3d 78ed d23d f09a b53c 48c6 df3c
00000080: 2961 afbd 9053 503d 080d 943c 47e2 1a3e
00000090: 74d9 01bd c0fe 11bc 78f8 d7bd b0b8 42bd
000000a0: 7cf7 f3bd 4184 17be 9005 673c 0091 9c3d
000000b0: 9624 a1bd 7eb5 8c3d f209 06bd a270 cd3d
000000c0: 0ad0 e1bd 8477 2c3d a6b1 02be 37da 0dbe
000000d0: 2c03 08be bdf6 15be e6bd d8bd 204d 333c
000000e0: a869 703d b84e 2cbd a005 fd3c 4048 f63c
000000f0: fefb 1abd bfb4 16be 554d f6bd 371b 16be
00000100: 1f75 203d 7f04 b93d 30ed 153c f2f3 71bd
00000110: 7c42 a3bc e5d8 9abc f1ed d83c f5b4 383e
00000120: 2574 553c 6848 03be fc98 14be 4115 c53d
00000130: 6cff 413c 9bb8 d03d d394 f03d 76ec 1cba
00000140: d3e8 a8bc e3c6 b23c 9270 ae3d f2eb 583d
00000150: 984d 99be 7c3c 38be 4102 c03c 9f79 e63d
00000160: 3018 ac3d da0e b6bb 5c9b 8dbd 70ab 993d
00000170: af4a db3b 18a5 e93c fc53 82bd efc5 02be
00000180: 0027 6fba d8f9 b8bd 3093 893d d4c4 4a3d
00000190: 80fb 733d e6aa d2bd 08c8 d83c 4a3d ea3d
000001a0: a07c 223d 38d0 8cbc ec05 0ebe ce22 fbbd
000001b0: dc17 cdbd 0033 2c3c 0800 e73c 4631 de3d
000001c0: aa29 d63d 6c4b 87bd 4e54 df3d 98de 19bd
000001d0: 78c8 dcbd f85a c13d 6ca4 af3d f43d 91bd
000001e0: 06f8 01be 32a8 ce3d 083d d6bd 902d b7bc
000001f0: f5f9 0d3e a0ed f93b 8c82 113d cae4 ef3d
00000200: 16c9 313e 166c 113e ff6b 123e c707 87bd
00000210: 9718 2fbd 2404 963d a9dc 1cbd 94d1 a8bd
00000220: 1ecc 94bd 9c80 0ebd e04e bf3d c52e 23be
00000230: e812 693d 07ef 5b3b a0d4 67bd 023f 813d
00000240: eb5b a73d 95fc d83b a573 533e 9413 973d
00000250: 4004 46bd 4ca1 83be c72e 6e3d 6417 4fbe
00000260: d3c3 bb3d 86e9 7c3d 73ea 71bd 92a0 32be
00000270: 684d c3bd dee2 233e 3938 abbd c032 303b
00000280: e28a 0fbe 5fa1 063e f4f0 563d 52a6 a23d
00000290: 5dad 03be e88f 573d 9624 9f3d f116 043e
000002a0: 03c5 143e 8c24 193d e0c9 f53b dc4b 7ebd
000002b0: 1edf ec3d 7410 0a3d 70f4 5bbc f601 13bd
000002c0: 2877 d43c 8fbd 173e 826e 8c3d bf16 97bd
000002d0: a02e 8a3c 20de ce3c c284 11bd 6659 99bd
000002e0: ca6b 64bd 9013 403d d0a3 113c 60a4 c63b
000002f0: fe74 f93d a0e4 83bc 2076 043d 66b0 b63d
00000300: feda 7abe dbaa c1bd e77b cb3d a85e b63d
00000310: dc37 9d3d f75c 353e fb9b de3d 70e9 c43b
00000320: 17fb 733e 4069 18be ecc9 573d ba6f 653e
00000330: 31eb 14bd be7b a1bd 392d 233e d49a a83d
00000340: 76ff 25be 2a86 f7bc 02a4 15be a349 72bd
00000350: 5969 19bd 9474 283e da7d 9e3d 2e90 eebc
00000360: 43fb 28be 7445 c3bd 4340 4c3d be7c 763d
00000370: e33a 3a3d ec94 cabd 90bd b83d 4e38 02be
00000380: 125b 92bd 6b00 013e 5254 35bd f644 913d
00000390: 9bc6 e9bd 3ff3 dbbd 882c 563d a4ae 6e3d
000003a0: e0de 503d 00d4 07be bf56 15be 983f 853d
000003b0: 249b 7cbd 8e29 12be 41d2 c4bd a0bb eb3c
000003c0: 60be d23b 72e4 c7bd da7b fb3d 4431 e7bc
000003d0: 70d9 273c 00e3 ccbc 88d6 6b3d da83 c93d
000003e0: 2a82 923d 19db 9cbd 4cd0 8a3d 70aa 0ebe
000003f0: e9f0 13be fabb 88bd 6c5f efbc 5203 fb3d
-0.039740957 0.0867766 -0.054295015 0.005162442 -0.045307823 -0.17601722 0.0064663505 0.053345416
0.0554215 0.23688635 0.009661315 -0.047947925 0.041265883 0.059497915 -0.08887525 -0.08266867
-0.07957483 0.030642867 0.041339092 0.19181986 -0.34812123 -0.15197705 0.006355815 -0.12034516
0.042603977 0.05664476 -0.1349893 0.20991515 0.07788506 0.102992 0.022168607 0.027316228
-0.08563454 0.05086094 0.01807262 0.1512538 -0.03170152 -0.008910835 -0.105454385 -0.047539413
-0.11912438 -0.14796545 0.014100447 0.07644844 -0.07868306 0.068705544 -0.03272433 0.10031249
-0.110260084 0.042106166 -0.1276308 -0.13852774 -0.1328246 -0.14644904 -0.10583095 0.010943681
0.05869451 -0.04206726 0.030886471 0.030063748 -0.037837975 -0.14717387 -0.12026469 -0.14658819
0.039174195 0.09034061 0.009150788 -0.059070535 -0.019929163 -0.018902251 0.026480647 0.1803778
0.013028179 -0.1282059 -0.14511484 0.096231945 0.0118406825 0.10191461 0.11747136 -0.0005986163
-0.020618832 0.021823352 0.08517565 0.05295939 -0.29942012 -0.17991823 0.023438575 0.11253666
0.08403051 -0.0055559697 -0.06914398 0.07503402 0.0066922526 0.028521106 -0.06363675 -0.12770818
-0.0009122938 -0.09032029 0.06717527 0.049504116 0.05956602 -0.102865025 0.02646257 0.11437471
0.039669633 -0.01718913 -0.13869447 -0.12262498 -0.100143164 0.010510206 0.028198257 0.10849242
0.104571655 -0.066061825 0.10904752 -0.037565798 -0.10780424 0.09441179 0.08576283 -0.07091895
-0.1269227 0.100906745 -0.104608595 -0.022360593 0.13864882 0.007627204 0.03552489 0.1171356
0.17361864 0.14201388 0.1429901 -0.0659328 -0.04274806 0.073250085 -0.038296375 -0.08243099
-0.07265495 -0.03479062 0.09341216 -0.1593581 0.056902796 0.003355922 -0.05659926 0.06310846
0.08171829 0.006621907 0.20649584 0.07376781 -0.048343897 -0.25708997 0.05815008 -0.20223767
0.0916821 0.061746143 -0.05906148 -0.17444065 -0.095362484 0.16004512 -0.08360333 0.0026885718
-0.14017823 0.13147496 0.052475885 0.07941879 -0.12859102 0.052627474 0.0777065 0.12899376
0.14528279 0.03738837 0.007500872 -0.062084064 0.11565994 0.033707097 -0.013424978 -0.035890542
0.025935724 0.14818405 0.06857015 -0.07377385 0.016867936 0.025252402 -0.035527 -0.074877545
-0.05576686 0.046893656 0.008889154 0.0060620755 0.121805176 -0.016100228 0.032339215 0.08920364
-0.24497601 -0.09456416 0.09935742 0.08904773 0.0767667 0.17711245 0.10869595 0.006009273
0.23826252 -0.148839 0.052682802 0.22405902 -0.03635711 -0.0788493 0.1593522 0.08232656
-0.16210732 -0.030215342 -0.14613345 -0.059152257 -0.037453983 0.16450721 0.07738848 -0.029121485
-0.16502099 -0.095347315 0.049865972 0.060177557 0.045466315 -0.09891686 0.09020531 -0.12716791
-0.071462765 0.12597816 -0.044269867 0.070932314 -0.11414834 -0.10739755 0.052288562 0.05827202
0.0509938 -0.13264465 -0.14583872 0.0650627 -0.06167139 -0.14273664 -0.09610415 0.02877599
0.006431386 -0.09760369 0.12279482 -0.028221734 0.010244712 -0.025010586 0.05757764 0.09839602
0.07153733 -0.07658977 0.06778011 -0.13932204 -0.14447369 -0.06676479 -0.029220305 0.12256493

edge_readout/dense_1/MatMul f4 [64, 128]
00000000: bd3c 923d 6bf1 f4bd 23af 83bd 85dc d63d
00000010: ad86 dcbd cdd1 d83d 6588 0ebe 7f5a 043e
00000020: 5b9d 20be 86fa 313e 7a2f 6f3d e8a8 373e
00000030: 5fbc 75bd df26 d6bc f05b a7bd fca7 a0bd
00000040: d8f1 a5bc e5dc 1fbe 249d 863d b056 073e
00000050: ed28 36bd 3195 19be 2a1d d1bc 3672 dbbd
00000060: abaf 21be 3219 05be 6d55 2fbd bd90 27be
00000070: b2be a83d 9ecd 9fbd 8c7b cbbd 6c45 543e
00000080: a3a0 8a3d 4a7c adbd 830d 0fbd ebf2 1dbe
00000090: e7b8 a83d ae79 2bbd 38a1 a2bd 2e17 d4bd
000000a0: 3a16 cabd bb84 953d 6f93 3c3e 31f3 63bd
000000b0: 7c31 f2bb d0d6 563e 11ec d93b 2656 bebd
000000c0: 3cce 13be 663c a0bc 9e0a 0cbe 709f 763d
000000d0: 189a c13d b59a 9abd e1d4 123e 0f9f fb3c
000000e0: c8e3 61bd 4773 a8bc 80a3 e53d 5723 1b3e
000000f0: cb5c 633d b21c 85bd 7bf7 fb3d 2d61 09be
00000100: daf5 45bc 5793 01bc 326f 6f3d d0ce 6abd
00000110: b743 09bd 9193 283d 5101 1fbd ed6a 2abd
00000120: 50d0 583d e510 a0bd a867 d2bd 4cca 0c3d
00000130: c0e4 6fbd d265 ea3d 4568 dd3c 7ee5 29be
00000140: c538 503e 3cdd d9bd c949 c1bd bbcf 0e3e
00000150: da45 c4b9 b3a1 fdbd 8f2e 0b3e a076 683a
00000160: 30b3 b63c ce7c 5e3d bdbe eebb 73e9 3abc
00000170: c0e8 afbd 82f7 1b3e 68bc 103e 1d26 91bd
00000180: 3108 a6bc ce0a c73d 4ed5 8bbd 1604 18be
00000190: 1315 093e c443 263d 3120 21be 2f7d 1ebd
000001a0: cb38 a53d 599f c4bd 2758 5e3e e8b5 583d
000001b0: f035 c9bd 7092 01be 9c60 d4bc 83a8 98bc
000001c0: 49df 1e3d d80f 3abe 2b68 03be 3156 8c3d
000001d0: bd10 663d a2d0 bfbd e32c c73d f837 52bd
000001e0: 7b8d 0e3e c9cc d2bc 92d0 d53d b298 3f3e
000001f0: 1332 033e e674 753d 34c8 19be a641 233d
00000200: 61fa c9bd 319c 9ebd a2f6 8a3d 7a63 293e
00000210: 22ff f8bd b322 45ba 5d4b ccbd 2e0b 19bd
00000220: 25f6 2b3e 8e14 21be fae1 9d3d 58a3 213e
00000230: 91d8 e9bb 0103 fdbd 4f24 b7bd 4019 bcbd
00000240: ec48 e2bc 2ec6 4ebc 4e98 1d3d f36b 66bd
00000250: 776d 8abc 2912 623d d86d bf3d f597 09bd
00000260: 62d2 1fbc 071e fc3c 50eb 08be dd61 83bd
00000270: 783c d43d e08d 14be 11e3 97bd 3446 07be
00000280: 23f4 92bd 5538 34be 9ea6 7f3b 3eb9 dbbd
00000290: 178c 58bd c857 19bd 0722 323e 16a5 093e
000002a0: cf1c f7bd 27aa 693d aaf1 20be 91ec b33d
000002b0: 9f7d 27be 66e1 1abe 9e5a b03d 8316 133e
000002c0: 29d5 423d de8f a4bd 93e6 2c3d 5e32 31be
000002d0: c1f9 2b3d 109d 003d 40a1 bc3c 8454 d73d
000002e0: ace6 c53c 822c 17be 7066 9abc 39d7 95ba
000002f0: 93ab c8bd 4160 fe3c c95e 9cbd c6e2 823d
00000300: d9f9 2fbd 9623 483d ee96 04be 8b50 d43d
00000310: 5faf 433d 4cda 883a 1d97 14bd a0c0 8a3d
00000320: 6d34 24be 6719 573c ebd2 be3c ef6e 0b3e
00000330: 9108 9cbd 9cfd 633d c8e0 c2bd 9c33 b0bd
00000340: c16d 11be 3afe 9b3d 1c69 183c 7dbb f6bc
00000350: bb41 1f3e 5204 553c cc89 08be cfc0 fdbd
00000360: 8163 16bc 96e1 01be 7bfc 133e 15af d73d
00000370: 33ee 28bd 254c ab3d f250 97bc f8d8 3f3d
00000380: 5d71 293d f14c eabd 6bab 733d 1f14 26be
00000390: 58f7 8abc 5a82 0abe df57 c23d e7c2 373d
000003a0: a5f0 40bd dd2e 203e 17b3 0c3d 40f3 89bd
000003b0: 9cdd 1dbd 126f 08be c492 e53c 4b97 ab3d
000003c0: af28 6abd bee0 0ebd d196 e3bd 30e4 aebd
000003d0: 47a4 4cbd b130 a2bc dbe4 963d 8889 d9bd
000003e0: 0e7d d7bd 2b1e 113e feda f43d e7f1 953d
000003f0: 7292 08be 6f57 1cbc 8856 db3c 4625 4a3d
0.07140491 -0.11960109 -0.06429889 0.104912795 -0.10767875 0.10586891 -0.13919218 0.12925147
-0.15685026 0.17380723 0.058394887 0.17935526 -0.059994098 -0.026141582 -0.081718326 -0.078445405
-0.020256922 -0.15611608 0.06572941 0.13216662 -0.044472624 -0.14998318 -0.025526602 -0.107151434
-0.15789668 -0.12997892 -0.042806078 -0.16363807 0.08239497 -0.0780289 -0.09935674 0.20729607
0.0676892 -0.08470972 -0.034924995 -0.15424697 0.08238392 -0.04186409 -0.07940906 -0.10355984
-0.09867521 0.07300707 0.18415616 -0.055651847 -0.007391153 0.20980382 0.0066504558 -0.09293775
-0.14434141 -0.01956005 -0.13675925 0.060210645 0.09453219 -0.07549039 0.1433902 0.030715493
-0.05514887 -0.020562781 0.11212826 0.151502 0.055508416 -0.06499614 0.123030625 -0.13415976
-0.012082541 -0.007908664 0.058455653 -0.057326138 -0.033511844 0.041156355 -0.038819615 -0.04160588
0.052933037 -0.078157224 -0.10273677 0.034372613 -0.058567762 0.11445202 0.027027259 -0.1659145
0.20334156 -0.106379 -0.094379015 0.1394643 -0.00037436077 -0.12384357 0.1359198 0.0008867774
0.02230224 0.05431824 -0.0072859214 -0.011408198 -0.085893154 0.15231135 0.14134371 -0.07087348
-0.020267578 0.09718858 -0.06827794 -0.14845309 0.13386945 0.04059197 -0.15734936 -0.038693603
0.08067473 -0.09600706 0.21713315 0.052907854 -0.09824741 -0.12653518 -0.025924973 -0.01863504
0.03878716 -0.18170106 -0.12832706 0.06852377 0.056168307 -0.093659654 0.09725358 -0.051322907
0.13921158 -0.025732415 0.10440172 0.18710592 0.1281207 0.059925936 -0.15017778 0.03985753
-0.09862209 -0.07744635 0.06785323 0.16541854 -0.12158038 -0.0007520124 -0.09975312 -0.037364177
0.16793115 -0.15730497 0.07709117 0.15784967 -0.0071364124 -0.123540886 -0.08942472 -0.091845036
-0.027622662 -0.012620492 0.038475327 -0.056255292 -0.0168979 0.0551931 0.09347123 -0.033592183
-0.009754749 0.030776037 -0.13371015 -0.0641515 0.10363096 -0.14507246 -0.07416356 -0.13210374
-0.07175472 -0.17599614 0.0039009224 -0.107286915 -0.052867975 -0.03743723 0.17395793 0.13441882
-0.12066042 0.057047036 -0.15717188 0.08785356 -0.16356514 -0.15125045 0.08611034 0.14364056
0.047566567 -0.08035253 0.04221208 -0.1730437 0.04198623 0.031399786 0.023026109 0.10514167
0.024157844 -0.14763072 -0.018847674 -0.0011431939 -0.0979835 0.031051757 -0.07635266 0.0639091
-0.042962883 0.048862062 -0.129482 0.10366925 0.04777467 0.0010441034 -0.036276925 0.067750216
-0.16035624 0.013128615 0.023293933 0.13616537 -0.076188214 0.055661783 -0.0951553 -0.08603594
-0.14202024 0.07616849 0.009302404 -0.030118698 0.15552418 0.013001518 -0.13333815 -0.12390291
-0.009178997 -0.1268371 0.14451782 0.10531441 -0.04124279 0.08364133 -0.018471215 0.046837777
0.041367877 -0.11440457 0.05948965 -0.16218613 -0.016963646 -0.13526288 0.09489416 0.044863608
-0.047104497 0.15642877 0.03435048 -0.067358494 -0.03854142 -0.1332362 0.028024085 0.08378466
-0.057167705 -0.0348823 -0.1111275 -0.08539617 -0.049961355 -0.019798608 0.073678695 -0.10621935
-0.10521899 0.14171664 0.11955832 0.0732153 -0.13337114 -0.00954233 0.02677466 0.049351953

edge_readout/dense_2/MatMul f4 [2, 64]
00000000: fd57 9bbd be59 90bc d5e6 92be b563 073f
00000010: aa57 cd3f c57c 85bd 0c94 68bf b3fb 633c
00000020: 7024 4cbf eac4 f73f 41d3 87bf ec4e 833e
00000030: e2b1 1f3e 64a7 b2bd 2576 7cbf b7b4 6abf
00000040: 70f4 0bbf 8294 933f 1fdd 35bf 1538 083d
00000050: c29c 77bf fd90 113e 00aa 07bf 3d35 cc3f
00000060: df41 1fbf 7f2f 35be 7233 c33e abc7 9abe
00000070: 00f0 4ebe 3050 8f3f dd05 153e 9805 0dbf
00000080: 5641 683f 4164 c93e 3e1e d9be dc6a a33f
00000090: 346d d0be 8dc4 a93f 6cd5 f03e a5b5 15bf
000000a0: 7915 d5be 3c7f 8f3f 781d ff3e c817 83be
000000b0: 011e e93e 9293 d03e b034 02bf 9840 c93e
000000c0: f104 9f3d 1534 353f 419a 6abf 6b4f 083f
000000d0: 1507 02bf 79c9 ed3e 1374 8c3f 5244 1a3f
000000e0: cdcc 0dbe 0b77 f43e b05c 99bf 59f3 b4be
000000f0: b0b1 a1bf 9fcf b43d 4677 50bf b185 82bf
00000100: 7828 c43e dd63 ad3d 247d 0f3e 1e6f 33bf
00000110: 491a bebf d9c4 e23e ef34 763f 0b8a 8bbe
00000120: 23b7 4f3f 1ca9 d5bf c7c2 563f bc93 9cbe
00000130: ffc8 fbbe 39aa 333e 15ed 843f 8be5 cb3e
00000140: 336b fa3d 1fd1 7ebf 541d 6e3f e3c3 363e
00000150: c78f 543f 9a40 93be 6863 023f eb3a e3bf
00000160: ae8f 313f 857c 113f 95f3 2fbf 4359 863e
00000170: 9fbd 0a3f a8b5 60bf 7344 353c 5fdd 1c3f
00000180: fd0b 68bf 9e39 02bd 6374 243f 4117 aabf
00000190: 028f 3a3f dfca 9abf d0e4 bdbe 1914 f53d
000001a0: 7c10 8c3e f56f 52bf de64 13bf e791 4fbe
000001b0: 39a7 97be 0e9e 2dbf 6930 963e 3bc1 7fbd
000001c0: d608 b1be 4276 58bf 574d 853f 6903 ffbe
000001d0: dca7 bd3e d0f5 26bf e74e 99bf 4b13 0dbe
000001e0: de74 133f ff62 d9be f9c1 343f 4dfa 993e
000001f0: 03e7 853f e85f ed3d 4fce 2f3f b584 5c3f
-0.07585142 -0.017620917 -0.28691736 0.52886516 1.6042378 -0.065179385 -0.908509 0.01391499
-0.797431 1.9356968 -1.0611345 0.2564615 0.155952 -0.087233335 -0.98617774 -0.91682
-0.5466986 1.1529696 -0.7104053 0.03325661 -0.9672357 0.14215465 -0.52993774 1.5953747
-0.62209886 -0.176939 0.38125187 -0.3023046 -0.2020874 1.1196346 0.14553018 -0.5508666
0.90724695 0.393343 -0.42405885 1.2766986 -0.40708315 1.3263108 0.47037828 -0.5848029
-0.41617945 1.1210704 0.4982717 -0.2560408 0.45530704 0.40737587 -0.50861645 0.39307094
0.077646144 0.70782596 -0.9164162 0.5324618 -0.50792056 0.46442774 1.0972923 0.602605
-0.13847657 0.47747073 -1.1981411 -0.3534191 -1.2632351 0.08828663 -0.81431997 -1.0197049
0.38312125 0.08466313 0.14012581 -0.70091426 -1.4851772 0.44290808 0.9617452 -0.27253756
0.8113882 -1.6692233 0.83890957 -0.30581462 -0.49176785 0.17545404 1.0384852 0.39823565
0.12227478 -0.99537843 0.930135 0.17848162 0.83031887 -0.28760225 0.5093293 -1.7752355
0.6935986 0.56830627 -0.6873105 0.26239976 0.5419559 -0.87777185 0.011063683 0.61275285
-0.9064329 -0.03179323 0.6424009 -1.3288347 0.7287446 -1.2093161 -0.37088633 0.11966724
0.27356327 -0.8220208 -0.57575786 -0.20270501 -0.29619768 -0.678193 0.2933381 -0.06244014
-0.34577054 -0.8455545 1.0414227 -0.4980729 0.3704213 -0.6521883 -1.1977204 -0.13776891
0.576002 -0.4245834 0.7060848 0.30073777 1.0461124 0.11590558 0.68674177 0.86139995

h_0/output/MatMul f4 [32, 30]
00000000: 94b3 883f b66a 6ebf 5311 6fba e724 963e
00000010: a21c 543e 8377 023e daf9 71be 751a 0abe
00000020: fad9 703e c5f1 a83e 8663 92be fe62 163d
00000030: 161b 4abe b843 5ebe 6271 29bd 5ab8 7d3e
00000040: 2469 83be 4efd a33d cb3b 5cbe 3e37 543e
00000050: c8aa 953d 85a4 84be afc4 74be c5d3 2e3e
00000060: 8605 82be ee2f 943e 6610 b33e b11d 35be
00000070: b64a 89be 9def 56bc 7ae3 6cbd b845 c340
00000080: 6ba1 b2b9 0822 563d 07f4 4c3d 02a2 85bd
00000090: 88b4 023d 794d a53f 79d1 cc3c ab89 a9bf
000000a0: 3b1d 95bd 3b31 95bc 56b1 673b 30b2 a63f
000000b0: d3ca 3d3d 981c a8bf 497a d1bd 7089 a93d
000000c0: 7aa0 d3bd 6262 a4bf 92d5 8cbc 2876 ac3f
000000d0: 45b1 973b 6357 123d de9b 99bd 77d8 a5bf
000000e0: 82da 1dbd ce17 ab3f 859c 0b3d d051 9b3c
000000f0: ce75 673c b8c8 d7bd 6615 8d3c 180a af3d
00000100: 6b4f 2b3b 620b 5fbd b352 bdbc c992 363c
00000110: 105d 3d3d 5d98 033c 99ff 78bc 2db4 e5bc
00000120: 696b aebb 0000 3f3b 30ac 243d 0170 53b9
00000130: 19a5 9abc b5ea 953c 8b53 edbc d4f9 2b3d
00000140: 06d4 3cbd 8f24 88bd 3980 9c3b c118 05bc
00000150: 2497 3fbd 44a5 4d3d a624 24bd 3da1 6ebd
00000160: 6c8e 0a3c 05e0 5039 150c 4e3d e2e3 5dbe
00000170: 9006 573b 3a78 e83d 89ff a7bb 369d 8abd
00000180: 6a4c d8bc e051 283b d536 723c e835 473e
00000190: a8f6 cbbc 1374 983d 8e26 cc3c f875 a2bd
000001a0: d9cd e03d 5ac6 e63d 1472 d4bc fffd 923d
000001b0: dacd 7e3c b88f 04bc 89f3 00bd 1a88 01bd
000001c0: 80bf 87bc 2123 90bd c281 12bd ec1a 973d
000001d0: 1476 01be d4d8 4d3d 3772 7ebc d91d 2cbc
000001e0: 236e b43c 258f 5b3b 16dd 27bc 7416 e03d
000001f0: c05c 033f 7f05 c3bd 2b24 033c 871f d6bd
00000200: a4a0 8dbd 846d fc3c ed82 8abd eea4 9abd
00000210: 3982 033d db3c bbbd 7131 80bd b7eb 333d
00000220: 83b5 8ebd 6dd0 a1bd c5bc fe3c 770b c2bd
00000230: 11bf 7abd 1d12 343d cba2 8cbd 8333 cabd
00000240: 695a e53b 37e9 dcbd 7fcc 8abd 89c1 fc3c
00000250: 036d 88bd f9e5 913b 448e 2dbc 41c8 59be
00000260: 9811 93bb b605 0b3e b8f9 be3d b6d3 323f
00000270: 3a65 95bd 8510 3f3d d2c5 39bd 2b2c b13d
00000280: 4fc3 d2bb 6017 893d 78e1 80bd ab45 51bd
00000290: 2d8f a6bc f9ef 37bc 5499 ddbc ddd8 bcbd
000002a0: 10f5 12bd 741f 893d 6fd7 863d 14c6 d8bd
000002b0: 6fac 5dbd bade ebbe 87fd 3bbd b4a4 283e
000002c0: e420 273d 0ce0 04bc 813b 09bd 0999 c6ba
000002d0: ceb2 8d3d 3e54 2ebd 8e4f 1cbd 58cc 763d
000002e0: c99d 51bd fa16 80bc 8d4b 4b3f e232 5dbd
000002f0: 0276 753c a638 15bc 81ac 283d 0db0 863c
00000300: 84dc 98bd 0a3c 9cbc b864 ba3b 786a d33c
00000310: a46b abbc d4e6 a2bc c6ff b6bd 3b0a 2a3c
00000320: 15ba aabc 121d 503c cbe6 cbbb d6d2 54bd
00000330: 96ec 61be e110 c9bc e05b 3dbc 3f14 b6bc
00000340: 81ff 643d 0ee1 2ab9 a2b5 f4bc fc73 913e
00000350: 95a7 c938 e2e3 85bb fd0c cebb 2577 6f3d
00000360: cf18 503c 40ef 4d3f be8e a8bc 91ca 11be
00000370: fdb7 963c d1ad a23d e319 c4bc 80d3 70bd
00000380: 390a 843d 614a bdbb 4247 ce3c bf0b fbbd
00000390: e35a 57bb bc8d 6abe 1689 dc3c d1ab e03d
000003a0: 653c 943b fc06 13be 3b97 083d 1e32 bbbe
000003b0: 9b13 6ebd 6664 dcbc c6ef 12bb c926 ba3b
000003c0: 5df7 f9bb ccfa 82bc 30f9 18bc ee94 82bd
000003d0: 6774 a8bc 7ff9 c1bd f929 21bc a499 7d3c
000003e0: aa4d 313f 421d adbd e42e 25bd 5eb6 2dbd
000003f0: 3d91 30bd 5559 c03d 1f55 abbd b829 c8bb
1.0679803 -0.9313158 -0.0009119708 0.2932503 0.20714048 0.12740903 -0.23630467 -0.13486655
0.23520651 0.32996956 -0.28591555 0.0367155 -0.19736895 -0.2170552 -0.041367896 0.24777356
-0.25666153 0.080072984 -0.21507184 0.20724198 0.073079646 -0.25906768 -0.23903154 0.17072971
-0.2539484 0.28942817 0.3497345 -0.17687108 -0.26814812 -0.013118652 -0.057834126 6.1022606
-0.0003407107 0.05227855 0.05003741 -0.06525041 0.03191045 1.2914268 0.025002228 -1.3245138
-0.07280966 -0.018211951 0.0035353503 1.3023129 0.046336006 -1.3133726 -0.10228402 0.08278167
-0.10333343 -1.2842524 -0.017191682 1.3473558 0.0046292865 0.03572787 -0.075004324 -1.2956685
-0.038538463 1.336664 0.034084816 0.01895991 0.014127208 -0.10536331 0.017222118 0.08546847
0.0026139866 -0.054454215 -0.023110723 0.011143395 0.04623133 0.008031932 -0.015197658 -0.028040016
-0.005322863 0.0029144287 0.040203273 -0.00020164253 -0.018877553 0.018300394 -0.0289705 0.0419863
-0.04610064 -0.06647598 0.0047760275 -0.008123578 -0.046775 0.050206438 -0.040074013 -0.058259238
0.008456808 0.0001991988 0.05030449 -0.21668962 0.0032810308 0.113510564 -0.0051268977 -0.06768267
-0.026403625 0.0025683567 0.014783581 0.19454157 -0.024897888 0.074440144 0.024920728 -0.07932657
0.10976762 0.11268301 -0.025933303 0.07177352 0.0155520085 -0.008090906 -0.031482253 -0.031623937
-0.016570807 -0.0703795 -0.035768278 0.07378182 -0.126427 0.05025561 -0.015530161 -0.010505163
0.022025174 0.003350207 -0.010245582 0.109417826 0.513134 -0.09522533 0.008004229 -0.10455232
-0.069154054 0.03081394 -0.06763253 -0.07550989 0.032106612 -0.09142467 -0.0625943 0.043925967
-0.06968214 -0.07901082 0.031095872 -0.09474843 -0.06121737 0.043962587 -0.06866988 -0.09873106
0.006999303 -0.1078667 -0.06777286 0.030854004 -0.06661417 0.0044524637 -0.010593001 -0.21267797
-0.0044881813 0.13576397 0.09324974 0.69854295 -0.07294698 0.046646614 -0.04535467 0.086510025
-0.006431974 0.066939116 -0.06293005 -0.05109183 -0.020331943 -0.0112266475 -0.027050652 -0.09221051
-0.03587824 0.06695452 0.065840594 -0.105846554 -0.054119524 -0.46068364 -0.04589608 0.1646908
0.04080285 -0.008110058 -0.033504013 -0.0015151809 0.0691887 -0.04256081 -0.038161807 0.06025347
-0.051175866 -0.015635956 0.79412156 -0.054003604 0.014981749 -0.009107744 0.041180138 0.01644137
-0.07463935 -0.019071598 0.005688276 0.025807604 -0.02092535 -0.019885458 -0.08935504 0.010378416
-0.020840684 0.012702243 -0.006222581 -0.05195888 -0.22062907 -0.024544181 -0.011557549 -0.022226451
0.05590773 -0.00016296303 -0.029871766 0.28408802 9.6156415e-05 -0.0040860036 -0.0062881694 0.058463234
0.012701227 0.8044319 -0.020575877 -0.14237429 0.01839828 0.07943309 -0.023938125 -0.058795452
0.06447262 -0.005776689 0.025180463 -0.122581 -0.003286057 -0.2290563 0.026920836 0.109702714
0.004523801 -0.14358133 0.03334735 -0.36561674 -0.058124166 -0.026903342 -0.0022420748 0.005680893
-0.007628365 -0.01598873 -0.009336755 -0.06376062 -0.020563317 -0.09471416 -0.009836667 0.015478525
0.6925913 -0.08452846 -0.04032792 -0.042410247 -0.04310726 0.09392039 -0.08365845 -0.006108489

h_next_3/hidden_0/MatMul f4 [128, 94]
00000000: d3db fe3e d545 6d3c e09d 2cbe 1d7a d9bd
00000010: 84a0 843d 4e3a 8dbb ea63 833d be49 9ebe
00000020: 9fd9 ec3c 5784 2ebe b6ee dcbd eb18 b8bc
00000030: e11e bb3d 8b90 113e c0fe 71bd 80d4 823e
00000040: 2192 b63d ff4e c53d 5dc4 b0bb c668 78be
00000050: 0e51 dcbd 7194 cfbd 31dd 83bc 4a41 933d
00000060: 05a8 a33d bb8e ec3d da29 01be 91c1 8bbd
00000070: 558b d13d 8ea0 4d3d 0000 0000 0000 0000
00000080: 48b3 0d3f d2f3 8abd cb55 83bc f736 053d
00000090: 8261 a23e 6dae e4bc aedd 6bbe b61e a1be
000000a0: ce91 3f3d 104d a33d 54ea cd3c f4f1 b5be
000000b0: 14a9 593d 27c3 0b3e 4c15 93be 4cdf 003f
000000c0: 135b d7bc 37fc a23e 327a e63d 56f8 8e3e
000000d0: 3103 233d 217c d5bd deaa 853e 8894 27bd
000000e0: 5e54 4abd 3164 c03c e6f5 35bd 88b0 cf3d
000000f0: f159 453c dc37 c53c 0000 0000 0000 0000
00000100: bf15 573f 554c b2be bb59 af3b 1794 483e
00000110: 8f83 9a3d a650 5f3d af3f 9fbe fe55 b3bc
00000120: f70d 78bd 7fa8 013e 4d43 97be 8b2d bc3d
00000130: e470 b43d 67cb a0bd fc45 903c 0d76 8f3d
00000140: bfc8 143e a0e2 acba 10e0 d43d 6335 833d
00000150: 7dcf f83d 2a6a 09be 8c9d 043e 458c 1ebd
00000160: 7328 97be 831f f73d 198f 313d 8706 9fbd
00000170: 3c64 9fbe cdcf ce3c 9284 983d 223d 503f
00000180: 9992 173d 3bb4 86be be08 c4be 6eb2 6e3d
00000190: fee5 9fbe 4e51 123f f1c1 64bd b1e6 cf3e
000001a0: 584a 06bf 93b8 c1be 63d7 dcbd 2549 8b3e
000001b0: 23d8 9abc 47a0 00bf 860c 113f 6d98 d63d
000001c0: 7fb8 26bd 44d8 863c 00aa 1abe 4ee8 903e
000001d0: 87dc cd3e 5c46 1a3d 5035 16bd 7932 373f
000001e0: 29de 0abf d221 b3bd 697e 4dbe c603 1f3e
000001f0: 0000 0000 0000 0000 6bf1 263b d076 5a3d
00000200: 4329 8fbc f764 c6bd b2b9 0b3e 6c01 da3d
00000210: e488 043e 4fd8 81be d4ad 72be 0849 b1be
00000220: 4cbc 043d 9802 113e 2cf8 473e 619d fdbc
00000230: 4e84 8b3d c32f 2c3d a110 9ebe 022c bd3c
00000240: 8f54 fc3b 3f96 3c3e 769c bcbc 5df7 cd3e
00000250: 7133 e13c eaa8 dcbd 046b d23d 2699 a43c
00000260: 9b6f 47be 6e09 5abe 8d19 533b 041d 973d
00000270: 0000 0000 0000 0000 aab0 953d 996d 3e3f
00000280: 4fc6 253b 4287 093d 26e0 a6bb 535f b2bc
00000290: 0d35 f43b d675 4f3e 4662 f4bc 0aef 46be
000002a0: 0f39 77bd 6e6c 93bd 3186 bd3c 64de 433e
000002b0: 5f91 33ba 9e7f 52be 731b 44bb ae10 5ebd
000002c0: adb9 51bc a198 3ebe 21e8 8cbc d034 1f3e
000002d0: 7fdb 063d c90b 83bb 0d59 e9bc 9700 33be
000002e0: 8ce4 3dbd a5bf 2a3e 4c29 c8bc 40eb 62bc
000002f0: e452 773d 3dae cf3a f692 393d 4788 533b
00000300: 7cd2 783b 2312 64bc e398 01bd 4316 533c
00000310: 9b6f b03b 5fc8 91bc 401b 133c d613 363c
00000320: fae2 0c3d f8e8 98bc cc7c 023d 66dd b53b
00000330: eeb7 36bc 895a 7dbb c96f 843b 2ee2 e8bb
00000340: 587a 7ebc d984 edbc 5274 1d3c 14d8 6bbd
00000350: af2b f83b b2ee b5bb 51c8 c6bb de3e ab3b
00000360: 6373 46bd 64ce 17bc 0000 0000 0000 0000
00000370: 681b 913e cc11 b83d 8e6e 4b3f 9fd4 56bc
00000380: ebb8 4fbd 9452 c93c 0c12 813b 0040 0c3d
00000390: 36e0 6d3d 7a26 19bc f212 86bb d27b 30be
000003a0: e779 853d c75c 72bc 55b3 89bc 17dd 78bd
000003b0: 9b40 093c aecd b43d e51d 42bc 4068 7c3c
000003c0: 1d1e 80bc b0c4 fbbb 99cc b13c a517 233c
000003d0: f645 4e3c 54a7 d2bb 9502 a83c e279 abbb
000003e0: d0ff 43bf b478 a23c 0000 0000 0000 0000
000003f0: 52ed cc3b 7de4 c23d e1e5 3c3c 2e3e b23f
0.49777088 0.014481981 -0.168571 -0.106189944 0.064759284 -0.004309929 0.064155415 -0.30915636
0.028912364 -0.17042671 -0.10787718 -0.02247282 0.09136749 0.14215295 -0.05908084 0.2555275
0.089145906 0.09634208 -0.005394502 -0.24258718 -0.107576475 -0.10135735 -0.016096683 0.07190187
0.079910316 0.11550661 -0.12613621 -0.06824029 0.102316536 0.050201945 0.0 0.0
0.55351686 -0.06784786 -0.01603212 0.03252312 0.31715018 -0.027915204 -0.23033783 -0.31468743
0.04676991 0.07973683 0.02513615 -0.35536158 0.05313976 0.13648663 -0.28727186 0.50340724
-0.026288545 0.3183305 0.11253776 0.2792384 0.039797965 -0.10424066 0.26106924 -0.040913135
-0.049396865 0.023485275 -0.04442396 0.101410925 0.0120453695 0.024074487 0.0 0.0
0.84017557 -0.34823862 0.005351273 0.19587742 0.07544624 0.05452027 -0.31103274 -0.02189159
-0.060560193 0.12661932 -0.29543534 0.09188374 0.08810595 -0.07851296 0.017611496 0.07004938
0.14529704 -0.0013190098 0.10394299 0.06406667 0.1214895 -0.13419405 0.12950724 -0.03870799
-0.29523048 0.12066557 0.04334936 -0.07764917 -0.3113116 0.025245572 0.07447161 0.8134328
0.03700504 -0.2630938 -0.3828792 0.058275633 -0.31230158 0.5715531 -0.05584902 0.4060569
-0.5245719 -0.3783613 -0.10783269 0.27204242 -0.01890189 -0.50244564 0.56659734 0.10478292
-0.040703293 0.016460545 -0.15103912 0.28302234 0.40207312 0.037664756 -0.036671937 0.7156139
-0.5424524 -0.08746685 -0.20067753 0.15528783 0.0 0.0 0.0025473486 0.053335965
-0.01747573 -0.09687226 0.13645056 0.106448025 0.12942845 -0.25360343 -0.23699123 -0.3462603
0.032406136 0.14161146 0.19528264 -0.030958833 0.068123445 0.042037737 -0.30872062 0.023092274
0.00770051 0.1841669 -0.023023825 0.40227786 0.02749035 -0.10774405 0.10274318 0.020092558
-0.19476168 -0.2129266 0.0032211274 0.07378581 0.0 0.0 0.073090866 0.7438598
0.0025295203 0.033576258 -0.0050926385 -0.02177397 0.007452613 0.20259795 -0.029832017 -0.19427124
-0.06035715 -0.07198416 0.023135277 0.19127804 -0.000684997 -0.20556495 -0.0029923588 -0.054215126
-0.012800616 -0.18612911 -0.017200531 0.1554749 0.03292417 -0.0039992076 -0.028484846 -0.17480694
-0.046360537 0.16674669 -0.024433754 -0.013850033 0.060381785 0.0015844774 0.04530617 0.0032277273
0.0037967255 -0.01392034 -0.031639945 0.012883726 0.005384398 -0.01779574 0.008978665 0.011113128
0.03439615 -0.018665776 0.031857297 0.0055500744 -0.011152251 -0.00386587 0.004041646 -0.007107041
-0.015532099 -0.02899401 0.009610252 -0.057579115 0.007573567 -0.0055521363 -0.00606636 0.005226
-0.048449885 -0.009265516 0.0 0.0 0.28341222 0.089877695 0.7946557 -0.013112216
-0.05071346 0.02457551 0.003938919 0.034240723 0.058075152 -0.009347552 -0.004091614 -0.17234734
0.06517392 -0.014792628 -0.016809145 -0.060757723 0.00837722 0.08828293 -0.011847948 0.0154057145
-0.01563936 -0.007683359 0.021704005 0.009954368 0.012589922 -0.0064286385 0.020509044 -0.0052330354
-0.76562214 0.019832946 0.0 0.0 0.0062538767 0.09516237 0.011529417 1.3925226

h_next_3/output/MatMul f4 [32, 128]
00000000: 91dd d33e 5364 04bd f604 da3c 5ab4 423d
00000010: 526b dabc c9bc 2b3c 1185 f03c f10d 463d
00000020: 695a c7bb 5f71 acbd 3777 85bc e7b3 7b3e
00000030: b362 9c3d b3d1 f13c a336 bc3d a5df 91bd
00000040: 351a 8c3c fdc9 73bd 4098 24bc dd96 abbc
00000050: 2f47 fc3c e4bb c43c 5d4b 6e3d 696f 64bb
00000060: 5142 c8bc e63c d93c bf9e 4fbd 7d88 8d3d
00000070: 8749 913d 6882 9d3d 0000 0000 0000 0000
00000080: c94f 50bd a1e3 6c3e 59a7 9fbb d7fb babc
00000090: 9974 813d 4d86 7bbb 6f51 1abd 6de5 ca3d
000000a0: 313a 61be 999d e2bd 182d 81bc be0c eabd
000000b0: 1803 81bd 554c a6bd dbc8 dabe dcd0 76bc
000000c0: fc2c 2bbd 5860 853d 7c5c d23c bbaa 0bbd
000000d0: 0bda 65bd fb32 75bd 110c f83d 2a50 71bd
000000e0: 5020 17bb 30af bd3c 367d 723c 5b86 94bd
000000f0: fe4a 81bd d38b fbbc 0000 0000 0000 0000
00000100: cf02 8cbd 2650 4abd dae9 4c3c e5bd aa3c
00000110: 718b 133d 9069 233e 4546 01be bce1 49bd
00000120: b05a fa3a 5cad 1ebd 6151 0a3d ef1d a23c
00000130: 3ef2 2cbe 5ba2 6abe 3c50 493e 81c9 883d
00000140: b896 803c f297 17bd 4ee3 f9bd a7b4 703e
00000150: b6f3 3a3d 9808 a5bd d7a3 afbc b8fd cc3d
00000160: 19e1 123e f438 6c3d da42 da3d 8c53 f73d
00000170: 3534 bfbd 624a f5bc 0000 0000 0000 0000
00000180: 0000 0000 0000 0000 0000 0000 0000 0000
00000190: 0000 0000 0000 0000 0000 0000 0000 0000
000001a0: 0000 0000 0000 0000 0000 0000 0000 0000
000001b0: 0000 0000 0000 0000 0000 0000 0000 0000
000001c0: 0000 0000 0000 0000 0000 0000 0000 0000
000001d0: 0000 0000 0000 0000 0000 0000 0000 0000
000001e0: 0000 0000 0000 0000 0000 0000 0000 0000
000001f0: 0000 0000 0000 0000 0000 0000 0000 0000
00000200: 6e70 7fbd bd88 f83e 4f8e 43bc 86e4 be3c
00000210: f415 833d 6bac 20be 4351 ff3d 09e1 00be
00000220: 1604 bc3d 4666 65bb a5a6 1dbe c90c cc3c
00000230: efdd 2b3d 6b2b c03d 993b b23d d344 643d
00000240: 2b36 a93c 8f08 87bc de44 a2bb b9df 9f3d
00000250: 765c 493b 67ab 9d3d 89bf ecbd 04e3 9cbc
00000260: aa92 e3bc 78de aabd 4aaf 33bb e66f 4d3d
00000270: 51f3 f73a 529b 2c3e 0000 0000 0000 0000
00000280: deb2 343e e0c5 71bc 7dfa 353d 9e9c f4bd
00000290: eba3 bcbd 88d7 15be ab31 28bd 289e 0cbd
000002a0: 33ae fa3d 4244 f13d 7748 efbd f3c5 d2bd
000002b0: f799 c73b 00bd 353d 2c5a d1bd 53ae a4bd
000002c0: 3707 2ebc 0542 3abc 7909 403e 5ef4 28be
000002d0: 10d9 5a3e 48d4 69bc 4908 b5bc 65db 6d3d
000002e0: 47ae de3b 6920 a3bd 3a24 143e eabc 5d3d
000002f0: 1d3c b73b 162f 92be 0000 0000 0000 0000
00000300: ca6d c1bd 5915 473d 05de c0bb 6fc8 5bbc
00000310: 121e 573b 6f88 d33d 8a82 13bc 21ae 4f3c
00000320: a4b4 73bd d896 3cbc 0acf 783c 315a 10bd
00000330: 459e 38bd ebb1 283d eaba a13d 3ea9 363e
00000340: 1c5a a63d 89bd 38bd d9ff 043e ff4b bd3c
00000350: a0b9 0e3e c239 983c d8d9 76bc b97d e03c
00000360: 3bb8 c1bd 6f57 eabb ed7a e4bc 4a4d 573c
00000370: 3da6 fd3d 3fed 4cbd 0000 0000 0000 0000
00000380: 0000 0000 0000 0000 0000 0000 0000 0000
00000390: 0000 0000 0000 0000 0000 0000 0000 0000
000003a0: 0000 0000 0000 0000 0000 0000 0000 0000
000003b0: 0000 0000 0000 0000 0000 0000 0000 0000
000003c0: 0000 0000 0000 0000 0000 0000 0000 0000
000003d0: 0000 0000 0000 0000 0000 0000 0000 0000
000003e0: 0000 0000 0000 0000 0000 0000 0000 0000
000003f0: 0000 0000 0000 0000 0000 0000 0000 0000
0.4137998 -0.03232224 0.026613694 0.047535278 -0.026662502 0.010482022 0.029360326 0.04835314
-0.006083776 -0.08420061 -0.016292198 0.24580346 0.07636013 0.029518938 0.091901086 -0.07122735
0.01710234 -0.059518803 -0.010046065 -0.02094596 0.030795662 0.024015374 0.05817734 -0.0034856445
-0.024445685 0.026518296 -0.0506885 0.06910799 0.07094102 0.07690889 0.0 0.0
-0.05085734 0.23133709 -0.0048722443 -0.022825165 0.06321067 -0.003837961 -0.037675317 0.09907041
-0.21994855 -0.110652156 -0.015768573 -0.11428212 -0.06299418 -0.08120028 -0.42731366 -0.015064444
-0.041790947 0.06512517 0.025678866 -0.03409837 -0.056116145 -0.059863072 0.121116765 -0.05891434
-0.0023060031 0.023154825 0.01480036 -0.07252189 -0.06313132 -0.030706322 0.0 0.0
-0.06836473 -0.04939284 0.012506926 0.020842502 0.036021654 0.15958238 -0.12624462 -0.049287543
0.0019100513 -0.038739547 0.033769015 0.019789664 -0.16889283 -0.22913496 0.19659513 0.06679059
0.015696868 -0.03701014 -0.12201558 0.23506413 0.045642577 -0.0805828 -0.02144043 0.100093305
0.1434368 0.057671502 0.10657282 0.12076482 -0.093361296 -0.029942695 0.0 0.0
0.0 0.0 0.0 0.0 0.0 0.0 0.0 0.0
0.0 0.0 0.0 0.0 0.0 0.0 0.0 0.0
0.0 0.0 0.0 0.0 0.0 0.0 0.0 0.0
0.0 0.0 0.0 0.0 0.0 0.0 0.0 0.0
-0.06236308 0.48541823 -0.0119357845 0.023302328 0.064006716 -0.15690772 0.12466671 -0.12585844
0.09180467 -0.0035003587 -0.15395601 0.02490844 0.0419597 0.09383281 0.087027736 0.0557297
0.020655712 -0.016483573 -0.0049520573 0.078063436 0.0030725277 0.07698708 -0.1155997 -0.019151218
-0.027779896 -0.08343214 -0.0027417713 0.050155543 0.0018917118 0.16856125 0.0 0.0
0.17646357 -0.01475665 0.044428337 -0.11943935 -0.09210952 -0.14633 -0.041062992 -0.034330517
0.12240257 0.11780597 -0.116837434 -0.10291662 0.006091352 0.044369698 -0.10222277 -0.08041062
-0.010621837 -0.011368279 0.18753614 -0.16499469 0.21371865 -0.014271803 -0.022098677 0.05807056
0.006795678 -0.07965166 0.14466944 0.05413524 0.005591883 -0.2855155 0.0 0.0
-0.09444769 0.048604343 -0.005885842 -0.013414486 0.003282432 0.10328757 -0.009003291 0.012675793
-0.059498444 -0.011510573 0.015186081 -0.035242263 -0.045072813 0.0411853 0.07896979 0.17837998
0.08122656 -0.04510263 0.12988223 0.023107527 0.13937998 0.018582229 -0.015066586 0.0274037
-0.09458967 -0.007151536 -0.027890647 0.013140986 0.12385223 -0.050030943 0.0 0.0
0.0 0.0 0.0 0.0 0.0 0.0 0.0 0.0
0.0 0.0 0.0 0.0 0.0 0.0 0.0 0.0
0.0 0.0 0.0 0.0 0.0 0.0 0.0 0.0
0.0 0.0 0.0 0.0 0.0 0.0 0.0 0.0
